…
/home/b.btv/anaconda3/envs/tid_lambda/lib/python3.8/site-packages/torch/functional.py:515: UserWarning: The function torch.rfft is deprecated and will be removed in a future PyTorch release. Use the new torch.fft module functions, instead, by importing torch.fft and calling torch.fft.fft or torch.fft.rfft. (Triggered internally at  /opt/conda/conda-bld/pytorch_1603729096996/work/aten/src/ATen/native/SpectralOps.cpp:590.)
  return _VF.stft(input, n_fft, hop_length, win_length, window,  # type: ignore
torch.Size([1, 40, 101])
----------------------------------------------------------------
        Layer (type)               Output Shape         Param #
================================================================
            Conv1d-1             [256, 44, 101]           5,280
            Conv1d-2             [256, 44, 101]           5,808
       BatchNorm1d-3             [256, 44, 101]               0
            Conv1d-4             [256, 64, 101]           2,816
       BatchNorm1d-5             [256, 64, 101]             128
            Conv1d-6             [256, 16, 101]             704
           Softmax-7          [256, 16, 1, 101]               0
            Conv1d-8             [256, 11, 101]             484
       BatchNorm1d-9             [256, 11, 101]              22
    LambdaLayer1D-10             [256, 44, 101]               0
      BatchNorm1d-11             [256, 44, 101]               0
           Conv1d-12             [256, 44, 101]           5,808
      BatchNorm1d-13             [256, 44, 101]               0
           Conv1d-14             [256, 64, 101]           2,816
      BatchNorm1d-15             [256, 64, 101]             128
           Conv1d-16             [256, 16, 101]             704
          Softmax-17          [256, 16, 1, 101]               0
           Conv1d-18             [256, 11, 101]             484
      BatchNorm1d-19             [256, 11, 101]              22
    LambdaLayer1D-20             [256, 44, 101]               0
      BatchNorm1d-21             [256, 44, 101]               0
           Conv1d-22             [256, 44, 101]           5,808
      BatchNorm1d-23             [256, 44, 101]               0
           Conv1d-24             [256, 64, 101]           2,816
      BatchNorm1d-25             [256, 64, 101]             128
           Conv1d-26             [256, 16, 101]             704
          Softmax-27          [256, 16, 1, 101]               0
           Conv1d-28             [256, 11, 101]             484
      BatchNorm1d-29             [256, 11, 101]              22
    LambdaLayer1D-30             [256, 44, 101]               0
      BatchNorm1d-31             [256, 44, 101]               0
           Conv1d-32             [256, 44, 101]           5,808
      BatchNorm1d-33             [256, 44, 101]               0
           Conv1d-34             [256, 64, 101]           2,816
      BatchNorm1d-35             [256, 64, 101]             128
           Conv1d-36             [256, 16, 101]             704
          Softmax-37          [256, 16, 1, 101]               0
           Conv1d-38             [256, 11, 101]             484
      BatchNorm1d-39             [256, 11, 101]              22
    LambdaLayer1D-40             [256, 44, 101]               0
      BatchNorm1d-41             [256, 44, 101]               0
           Conv1d-42             [256, 44, 101]           5,808
      BatchNorm1d-43             [256, 44, 101]               0
           Conv1d-44             [256, 64, 101]           2,816
      BatchNorm1d-45             [256, 64, 101]             128
           Conv1d-46             [256, 16, 101]             704
          Softmax-47          [256, 16, 1, 101]               0
           Conv1d-48             [256, 11, 101]             484
      BatchNorm1d-49             [256, 11, 101]              22
    LambdaLayer1D-50             [256, 44, 101]               0
      BatchNorm1d-51             [256, 44, 101]               0
           Conv1d-52             [256, 44, 101]           5,808
      BatchNorm1d-53             [256, 44, 101]               0
           Conv1d-54             [256, 64, 101]           2,816
      BatchNorm1d-55             [256, 64, 101]             128
           Conv1d-56             [256, 16, 101]             704
          Softmax-57          [256, 16, 1, 101]               0
           Conv1d-58             [256, 11, 101]             484
      BatchNorm1d-59             [256, 11, 101]              22
    LambdaLayer1D-60             [256, 44, 101]               0
      BatchNorm1d-61             [256, 44, 101]               0
           Conv1d-62             [256, 44, 101]           5,808
      BatchNorm1d-63             [256, 44, 101]               0
           Conv1d-64             [256, 64, 101]           2,816
      BatchNorm1d-65             [256, 64, 101]             128
           Conv1d-66             [256, 16, 101]             704
          Softmax-67          [256, 16, 1, 101]               0
           Conv1d-68             [256, 11, 101]             484
      BatchNorm1d-69             [256, 11, 101]              22
    LambdaLayer1D-70             [256, 44, 101]               0
      BatchNorm1d-71             [256, 44, 101]               0
LambdaResNet15_1d-72                  [256, 44]               0
           Linear-73                  [256, 44]           1,980
             ReLU-74                  [256, 44]               0
           Linear-75                  [256, 11]             495
  SupervisedModel-76                  [256, 11]               0
================================================================
Total params: 77,489
Trainable params: 77,489
Non-trainable params: 0
----------------------------------------------------------------
Input size (MB): 3.95
Forward/backward pass size (MB): 503.33
Params size (MB): 0.30
Estimated Total Size (MB): 507.57
----------------------------------------------------------------

(tensor(77489), tensor(77489))
…
