…
/home/b.btv/anaconda3/envs/tid_lambda/lib/python3.8/site-packages/torch/functional.py:515: UserWarning: The function torch.rfft is deprecated and will be removed in a future PyTorch release. Use the new torch.fft module functions, instead, by importing torch.fft and calling torch.fft.fft or torch.fft.rfft. (Triggered internally at  /opt/conda/conda-bld/pytorch_1603729096996/work/aten/src/ATen/native/SpectralOps.cpp:590.)
  return _VF.stft(input, n_fft, hop_length, win_length, window,  # type: ignore
torch.Size([1, 40, 101])
----------------------------------------------------------------
        Layer (type)               Output Shape         Param #
================================================================
            Conv2d-1         [100, 45, 40, 101]             405
            Conv2d-2         [100, 45, 40, 101]          18,225
       BatchNorm2d-3         [100, 45, 40, 101]               0
            Conv2d-4         [100, 45, 40, 101]          18,225
       BatchNorm2d-5         [100, 45, 40, 101]               0
            Conv2d-6         [100, 45, 40, 101]          18,225
       BatchNorm2d-7         [100, 45, 40, 101]               0
            Conv2d-8         [100, 45, 40, 101]          18,225
       BatchNorm2d-9         [100, 45, 40, 101]               0
           Conv2d-10         [100, 45, 40, 101]          18,225
      BatchNorm2d-11         [100, 45, 40, 101]               0
           Conv2d-12         [100, 45, 40, 101]          18,225
      BatchNorm2d-13         [100, 45, 40, 101]               0
           Conv2d-14         [100, 45, 40, 101]          18,225
      BatchNorm2d-15         [100, 45, 40, 101]               0
           Conv2d-16         [100, 45, 40, 101]          18,225
      BatchNorm2d-17         [100, 45, 40, 101]               0
           Conv2d-18         [100, 45, 40, 101]          18,225
      BatchNorm2d-19         [100, 45, 40, 101]               0
           Conv2d-20         [100, 45, 40, 101]          18,225
      BatchNorm2d-21         [100, 45, 40, 101]               0
           Conv2d-22         [100, 45, 40, 101]          18,225
      BatchNorm2d-23         [100, 45, 40, 101]               0
           Conv2d-24         [100, 45, 40, 101]          18,225
      BatchNorm2d-25         [100, 45, 40, 101]               0
           Conv2d-26         [100, 45, 40, 101]          18,225
      BatchNorm2d-27         [100, 45, 40, 101]               0
            Res15-28                  [100, 45]               0
           Linear-29                  [100, 35]           1,610
  SupervisedModel-30                  [100, 35]               0
================================================================
Total params: 238,940
Trainable params: 238,940
Non-trainable params: 0
----------------------------------------------------------------
Input size (MB): 1.54
Forward/backward pass size (MB): 3745.05
Params size (MB): 0.91
Estimated Total Size (MB): 3747.50
----------------------------------------------------------------

(tensor(238940), tensor(238940))
…
