…
/home/b.btv/anaconda3/envs/tid_lambda/lib/python3.8/site-packages/torch/functional.py:515: UserWarning: The function torch.rfft is deprecated and will be removed in a future PyTorch release. Use the new torch.fft module functions, instead, by importing torch.fft and calling torch.fft.fft or torch.fft.rfft. (Triggered internally at  /opt/conda/conda-bld/pytorch_1603729096996/work/aten/src/ATen/native/SpectralOps.cpp:590.)
  return _VF.stft(input, n_fft, hop_length, win_length, window,  # type: ignore
torch.Size([1, 40, 101])
----------------------------------------------------------------
        Layer (type)               Output Shape         Param #
================================================================
            Conv1d-1              [256, 16, 99]           1,920
       BatchNorm1d-2              [256, 16, 99]              32
              ReLU-3              [256, 16, 99]               0
         MaxPool1d-4              [256, 16, 50]               0
            Conv1d-5              [256, 48, 50]           2,304
       BatchNorm1d-6              [256, 48, 50]              96
            Conv1d-7              [256, 64, 50]           3,072
       BatchNorm1d-8              [256, 64, 50]             128
            Conv1d-9              [256, 16, 50]             768
          Softmax-10           [256, 16, 1, 50]               0
           Conv1d-11              [256, 12, 50]             576
      BatchNorm1d-12              [256, 12, 50]              24
    LambdaLayer1D-13              [256, 48, 50]               0
        AvgPool1d-14              [256, 48, 50]               0
      BatchNorm1d-15              [256, 48, 50]              96
             ReLU-16              [256, 48, 50]               0
           Conv1d-17              [256, 48, 50]             768
      BatchNorm1d-18              [256, 48, 50]              96
      LambdaBlock-19              [256, 48, 50]               0
           Conv1d-20              [256, 48, 50]           6,912
      BatchNorm1d-21              [256, 48, 50]              96
           Conv1d-22              [256, 64, 50]           3,072
      BatchNorm1d-23              [256, 64, 50]             128
           Conv1d-24              [256, 16, 50]             768
          Softmax-25           [256, 16, 1, 50]               0
           Conv1d-26              [256, 12, 50]             576
      BatchNorm1d-27              [256, 12, 50]              24
    LambdaLayer1D-28              [256, 48, 50]               0
      BatchNorm1d-29              [256, 48, 50]              96
             ReLU-30              [256, 48, 50]               0
      LambdaBlock-31              [256, 48, 50]               0
           Conv1d-32              [256, 72, 25]          10,368
      BatchNorm1d-33              [256, 72, 25]             144
           Conv1d-34              [256, 64, 25]           4,608
      BatchNorm1d-35              [256, 64, 25]             128
           Conv1d-36              [256, 16, 25]           1,152
          Softmax-37           [256, 16, 1, 25]               0
           Conv1d-38              [256, 18, 25]           1,296
      BatchNorm1d-39              [256, 18, 25]              36
    LambdaLayer1D-40              [256, 72, 25]               0
        AvgPool1d-41              [256, 72, 25]               0
      BatchNorm1d-42              [256, 72, 25]             144
             ReLU-43              [256, 72, 25]               0
           Conv1d-44              [256, 72, 25]           3,456
      BatchNorm1d-45              [256, 72, 25]             144
      LambdaBlock-46              [256, 72, 25]               0
           Conv1d-47              [256, 72, 25]          15,552
      BatchNorm1d-48              [256, 72, 25]             144
           Conv1d-49              [256, 64, 25]           4,608
      BatchNorm1d-50              [256, 64, 25]             128
           Conv1d-51              [256, 16, 25]           1,152
          Softmax-52           [256, 16, 1, 25]               0
           Conv1d-53              [256, 18, 25]           1,296
      BatchNorm1d-54              [256, 18, 25]              36
    LambdaLayer1D-55              [256, 72, 25]               0
      BatchNorm1d-56              [256, 72, 25]             144
             ReLU-57              [256, 72, 25]               0
      LambdaBlock-58              [256, 72, 25]               0
           Conv1d-59              [256, 96, 13]          20,736
      BatchNorm1d-60              [256, 96, 13]             192
           Conv1d-61              [256, 64, 13]           6,144
      BatchNorm1d-62              [256, 64, 13]             128
           Conv1d-63              [256, 16, 13]           1,536
          Softmax-64           [256, 16, 1, 13]               0
           Conv1d-65              [256, 24, 13]           2,304
      BatchNorm1d-66              [256, 24, 13]              48
    LambdaLayer1D-67              [256, 96, 13]               0
        AvgPool1d-68              [256, 96, 13]               0
      BatchNorm1d-69              [256, 96, 13]             192
             ReLU-70              [256, 96, 13]               0
           Conv1d-71              [256, 96, 13]           6,912
      BatchNorm1d-72              [256, 96, 13]             192
      LambdaBlock-73              [256, 96, 13]               0
           Conv1d-74              [256, 96, 13]          27,648
      BatchNorm1d-75              [256, 96, 13]             192
           Conv1d-76              [256, 64, 13]           6,144
      BatchNorm1d-77              [256, 64, 13]             128
           Conv1d-78              [256, 16, 13]           1,536
          Softmax-79           [256, 16, 1, 13]               0
           Conv1d-80              [256, 24, 13]           2,304
      BatchNorm1d-81              [256, 24, 13]              48
    LambdaLayer1D-82              [256, 96, 13]               0
      BatchNorm1d-83              [256, 96, 13]             192
             ReLU-84              [256, 96, 13]               0
      LambdaBlock-85              [256, 96, 13]               0
           Conv1d-86              [256, 120, 7]          34,560
      BatchNorm1d-87              [256, 120, 7]             240
           Conv1d-88               [256, 64, 7]           7,680
      BatchNorm1d-89               [256, 64, 7]             128
           Conv1d-90               [256, 16, 7]           1,920
          Softmax-91            [256, 16, 1, 7]               0
           Conv1d-92               [256, 30, 7]           3,600
      BatchNorm1d-93               [256, 30, 7]              60
    LambdaLayer1D-94              [256, 120, 7]               0
        AvgPool1d-95              [256, 120, 7]               0
      BatchNorm1d-96              [256, 120, 7]             240
             ReLU-97              [256, 120, 7]               0
           Conv1d-98              [256, 120, 7]          11,520
      BatchNorm1d-99              [256, 120, 7]             240
     LambdaBlock-100              [256, 120, 7]               0
          Conv1d-101              [256, 120, 7]          43,200
     BatchNorm1d-102              [256, 120, 7]             240
          Conv1d-103               [256, 64, 7]           7,680
     BatchNorm1d-104               [256, 64, 7]             128
          Conv1d-105               [256, 16, 7]           1,920
         Softmax-106            [256, 16, 1, 7]               0
          Conv1d-107               [256, 30, 7]           3,600
     BatchNorm1d-108               [256, 30, 7]              60
   LambdaLayer1D-109              [256, 120, 7]               0
     BatchNorm1d-110              [256, 120, 7]             240
            ReLU-111              [256, 120, 7]               0
     LambdaBlock-112              [256, 120, 7]               0
AdaptiveAvgPool1d-113              [256, 120, 1]               0
    LambdaResNet-114                 [256, 120]               0
          Linear-115                  [256, 35]           4,235
 SupervisedModel-116                  [256, 35]               0
================================================================
Total params: 264,155
Trainable params: 264,155
Non-trainable params: 0
----------------------------------------------------------------
Input size (MB): 3.95
Forward/backward pass size (MB): 267.32
Params size (MB): 1.01
Estimated Total Size (MB): 272.28
----------------------------------------------------------------

(tensor(264155), tensor(264155))
…
