…
/home/b.btv/anaconda3/envs/tid_lambda/lib/python3.8/site-packages/torch/functional.py:515: UserWarning: The function torch.rfft is deprecated and will be removed in a future PyTorch release. Use the new torch.fft module functions, instead, by importing torch.fft and calling torch.fft.fft or torch.fft.rfft. (Triggered internally at  /opt/conda/conda-bld/pytorch_1603729096996/work/aten/src/ATen/native/SpectralOps.cpp:590.)
  return _VF.stft(input, n_fft, hop_length, win_length, window,  # type: ignore
torch.Size([1, 40, 101])
----------------------------------------------------------------
        Layer (type)               Output Shape         Param #
================================================================
            Conv1d-1              [256, 16, 99]           1,920
       BatchNorm1d-2              [256, 16, 99]              32
              ReLU-3              [256, 16, 99]               0
         MaxPool1d-4              [256, 16, 50]               0
            Conv1d-5              [256, 24, 25]           3,456
       BatchNorm1d-6              [256, 24, 25]              48
            Conv1d-7              [256, 24, 25]           5,184
         AvgPool1d-8              [256, 24, 25]               0
       BatchNorm1d-9              [256, 24, 25]              48
             ReLU-10              [256, 24, 25]               0
           Conv1d-11              [256, 24, 25]             384
      BatchNorm1d-12              [256, 24, 25]              48
      LambdaBlock-13              [256, 24, 25]               0
           Conv1d-14              [256, 24, 25]           5,184
      BatchNorm1d-15              [256, 24, 25]              48
           Conv1d-16              [256, 24, 25]           5,184
      BatchNorm1d-17              [256, 24, 25]              48
             ReLU-18              [256, 24, 25]               0
      LambdaBlock-19              [256, 24, 25]               0
           Conv1d-20              [256, 36, 13]           7,776
      BatchNorm1d-21              [256, 36, 13]              72
           Conv1d-22              [256, 36, 13]          11,664
        AvgPool1d-23              [256, 36, 13]               0
      BatchNorm1d-24              [256, 36, 13]              72
             ReLU-25              [256, 36, 13]               0
           Conv1d-26              [256, 36, 13]             864
      BatchNorm1d-27              [256, 36, 13]              72
      LambdaBlock-28              [256, 36, 13]               0
           Conv1d-29              [256, 36, 13]          11,664
      BatchNorm1d-30              [256, 36, 13]              72
           Conv1d-31              [256, 36, 13]          11,664
      BatchNorm1d-32              [256, 36, 13]              72
             ReLU-33              [256, 36, 13]               0
      LambdaBlock-34              [256, 36, 13]               0
           Conv1d-35               [256, 48, 7]          15,552
      BatchNorm1d-36               [256, 48, 7]              96
           Conv1d-37               [256, 48, 7]          20,736
        AvgPool1d-38               [256, 48, 7]               0
      BatchNorm1d-39               [256, 48, 7]              96
             ReLU-40               [256, 48, 7]               0
           Conv1d-41               [256, 48, 7]           1,728
      BatchNorm1d-42               [256, 48, 7]              96
      LambdaBlock-43               [256, 48, 7]               0
           Conv1d-44               [256, 48, 7]          20,736
      BatchNorm1d-45               [256, 48, 7]              96
           Conv1d-46               [256, 48, 7]          20,736
      BatchNorm1d-47               [256, 48, 7]              96
             ReLU-48               [256, 48, 7]               0
      LambdaBlock-49               [256, 48, 7]               0
AdaptiveAvgPool1d-50               [256, 48, 1]               0
           ResNet-51                  [256, 48]               0
           Linear-52                  [256, 21]           1,029
  SupervisedModel-53                  [256, 21]               0
================================================================
Total params: 146,573
Trainable params: 146,573
Non-trainable params: 0
----------------------------------------------------------------
Input size (MB): 3.95
Forward/backward pass size (MB): 52.25
Params size (MB): 0.56
Estimated Total Size (MB): 56.75
----------------------------------------------------------------

(tensor(146573), tensor(146573))
…
